7767517
161 187
Input                    input.1                  0 1 0
MemoryData               928                      0 1 928 0=1
Convolution              500                      1 1 0 502 0=24 1=3 3=2 4=1 5=1 6=648 9=1
Pooling                  503                      1 1 502 503 1=3 2=2 3=1 5=1
Split                    splitncnn_0              1 3 503 503_splitncnn_0 503_splitncnn_1 503_splitncnn_2
Convolution              504                      1 1 503_splitncnn_2 506 0=24 1=1 5=1 6=576 9=1
ConvolutionDepthWise     507                      1 1 506 508 0=24 1=5 3=2 4=2 5=1 6=600 7=24
Convolution              509                      1 1 508 511 0=24 1=1 5=1 6=576 9=1
ConvolutionDepthWise     512                      1 1 503_splitncnn_1 513 0=24 1=5 3=2 4=2 5=1 6=600 7=24
Convolution              514                      1 1 513 516 0=24 1=1 5=1 6=576 9=1
Concat                   517                      2 1 516 511 517
ShuffleChannel           522                      1 1 517 522 0=2
Slice                    523                      1 2 522 523 524 -23300=2,24,-233
Convolution              525                      1 1 524 527 0=24 1=1 5=1 6=576 9=1
ConvolutionDepthWise     528                      1 1 527 529 0=24 1=5 4=2 5=1 6=600 7=24
Convolution              530                      1 1 529 532 0=24 1=1 5=1 6=576 9=1
Concat                   533                      2 1 523 532 533
ShuffleChannel           538                      1 1 533 538 0=2
Slice                    539                      1 2 538 539 540 -23300=2,24,-233
Convolution              541                      1 1 540 543 0=24 1=1 5=1 6=576 9=1
ConvolutionDepthWise     544                      1 1 543 545 0=24 1=5 4=2 5=1 6=600 7=24
Convolution              546                      1 1 545 548 0=24 1=1 5=1 6=576 9=1
Concat                   549                      2 1 539 548 549
ShuffleChannel           554                      1 1 549 554 0=2
Slice                    555                      1 2 554 555 556 -23300=2,24,-233
Convolution              557                      1 1 556 559 0=24 1=1 5=1 6=576 9=1
ConvolutionDepthWise     560                      1 1 559 561 0=24 1=5 4=2 5=1 6=600 7=24
Convolution              562                      1 1 561 564 0=24 1=1 5=1 6=576 9=1
Concat                   565                      2 1 555 564 565
ShuffleChannel           570                      1 1 565 570 0=2
Split                    splitncnn_1              1 3 570 570_splitncnn_0 570_splitncnn_1 570_splitncnn_2
Convolution              571                      1 1 570_splitncnn_2 573 0=48 1=1 5=1 6=2304 9=1
ConvolutionDepthWise     574                      1 1 573 575 0=48 1=5 3=2 4=2 5=1 6=1200 7=48
Convolution              576                      1 1 575 578 0=48 1=1 5=1 6=2304 9=1
ConvolutionDepthWise     579                      1 1 570_splitncnn_1 580 0=48 1=5 3=2 4=2 5=1 6=1200 7=48
Convolution              581                      1 1 580 583 0=48 1=1 5=1 6=2304 9=1
Concat                   584                      2 1 583 578 584
ShuffleChannel           589                      1 1 584 589 0=2
Slice                    590                      1 2 589 590 591 -23300=2,48,-233
Convolution              592                      1 1 591 594 0=48 1=1 5=1 6=2304 9=1
ConvolutionDepthWise     595                      1 1 594 596 0=48 1=5 4=2 5=1 6=1200 7=48
Convolution              597                      1 1 596 599 0=48 1=1 5=1 6=2304 9=1
Concat                   600                      2 1 590 599 600
ShuffleChannel           605                      1 1 600 605 0=2
Slice                    606                      1 2 605 606 607 -23300=2,48,-233
Convolution              608                      1 1 607 610 0=48 1=1 5=1 6=2304 9=1
ConvolutionDepthWise     611                      1 1 610 612 0=48 1=5 4=2 5=1 6=1200 7=48
Convolution              613                      1 1 612 615 0=48 1=1 5=1 6=2304 9=1
Concat                   616                      2 1 606 615 616
ShuffleChannel           621                      1 1 616 621 0=2
Slice                    622                      1 2 621 622 623 -23300=2,48,-233
Convolution              624                      1 1 623 626 0=48 1=1 5=1 6=2304 9=1
ConvolutionDepthWise     627                      1 1 626 628 0=48 1=5 4=2 5=1 6=1200 7=48
Convolution              629                      1 1 628 631 0=48 1=1 5=1 6=2304 9=1
Concat                   632                      2 1 622 631 632
ShuffleChannel           637                      1 1 632 637 0=2
Slice                    638                      1 2 637 638 639 -23300=2,48,-233
Convolution              640                      1 1 639 642 0=48 1=1 5=1 6=2304 9=1
ConvolutionDepthWise     643                      1 1 642 644 0=48 1=5 4=2 5=1 6=1200 7=48
Convolution              645                      1 1 644 647 0=48 1=1 5=1 6=2304 9=1
Concat                   648                      2 1 638 647 648
ShuffleChannel           653                      1 1 648 653 0=2
Slice                    654                      1 2 653 654 655 -23300=2,48,-233
Convolution              656                      1 1 655 658 0=48 1=1 5=1 6=2304 9=1
ConvolutionDepthWise     659                      1 1 658 660 0=48 1=5 4=2 5=1 6=1200 7=48
Convolution              661                      1 1 660 663 0=48 1=1 5=1 6=2304 9=1
Concat                   664                      2 1 654 663 664
ShuffleChannel           669                      1 1 664 669 0=2
Slice                    670                      1 2 669 670 671 -23300=2,48,-233
Convolution              672                      1 1 671 674 0=48 1=1 5=1 6=2304 9=1
ConvolutionDepthWise     675                      1 1 674 676 0=48 1=5 4=2 5=1 6=1200 7=48
Convolution              677                      1 1 676 679 0=48 1=1 5=1 6=2304 9=1
Concat                   680                      2 1 670 679 680
ShuffleChannel           685                      1 1 680 685 0=2
Slice                    686                      1 2 685 686 687 -23300=2,48,-233
Convolution              688                      1 1 687 690 0=48 1=1 5=1 6=2304 9=1
ConvolutionDepthWise     691                      1 1 690 692 0=48 1=5 4=2 5=1 6=1200 7=48
Convolution              693                      1 1 692 695 0=48 1=1 5=1 6=2304 9=1
Concat                   696                      2 1 686 695 696
ShuffleChannel           701                      1 1 696 701 0=2
Split                    splitncnn_2              1 3 701 701_splitncnn_0 701_splitncnn_1 701_splitncnn_2
Convolution              702                      1 1 701_splitncnn_2 704 0=96 1=1 5=1 6=9216 9=1
ConvolutionDepthWise     705                      1 1 704 706 0=96 1=5 3=2 4=2 5=1 6=2400 7=96
Convolution              707                      1 1 706 709 0=96 1=1 5=1 6=9216 9=1
ConvolutionDepthWise     710                      1 1 701_splitncnn_1 711 0=96 1=5 3=2 4=2 5=1 6=2400 7=96
Convolution              712                      1 1 711 714 0=96 1=1 5=1 6=9216 9=1
Concat                   715                      2 1 714 709 715
ShuffleChannel           720                      1 1 715 720 0=2
Slice                    721                      1 2 720 721 722 -23300=2,96,-233
Convolution              723                      1 1 722 725 0=96 1=1 5=1 6=9216 9=1
ConvolutionDepthWise     726                      1 1 725 727 0=96 1=5 4=2 5=1 6=2400 7=96
Convolution              728                      1 1 727 730 0=96 1=1 5=1 6=9216 9=1
Concat                   731                      2 1 721 730 731
ShuffleChannel           736                      1 1 731 736 0=2
Slice                    737                      1 2 736 737 738 -23300=2,96,-233
Convolution              739                      1 1 738 741 0=96 1=1 5=1 6=9216 9=1
ConvolutionDepthWise     742                      1 1 741 743 0=96 1=5 4=2 5=1 6=2400 7=96
Convolution              744                      1 1 743 746 0=96 1=1 5=1 6=9216 9=1
Concat                   747                      2 1 737 746 747
ShuffleChannel           752                      1 1 747 752 0=2
Slice                    753                      1 2 752 753 754 -23300=2,96,-233
Convolution              755                      1 1 754 757 0=96 1=1 5=1 6=9216 9=1
ConvolutionDepthWise     758                      1 1 757 759 0=96 1=5 4=2 5=1 6=2400 7=96
Convolution              760                      1 1 759 762 0=96 1=1 5=1 6=9216 9=1
Concat                   763                      2 1 753 762 763
ShuffleChannel           768                      1 1 763 768 0=2
Split                    splitncnn_3              1 3 768 768_splitncnn_0 768_splitncnn_1 768_splitncnn_2
Convolution              769                      1 1 768_splitncnn_2 771 0=48 1=1 5=1 6=9216 9=1
ConvolutionDepthWise     772                      1 1 771 773 0=48 1=3 2=2 4=2 5=1 6=432 7=48
Convolution              774                      1 1 773 775 0=48 1=1 5=1 6=2304
Interp                   800                      1 1 775 800 0=2 1=2.000000e+00 2=2.000000e+00
Pooling                  801                      1 1 768_splitncnn_1 801 0=1 4=1
InnerProduct             802                      1 1 801 803 0=48 1=1 2=9216
Convolution              804                      1 1 768_splitncnn_0 806 0=48 1=1 5=1 6=9216 9=1
DeconvolutionDepthWise   807                      1 1 806 808 0=48 1=4 2=3 3=2 4=4 5=1 6=768 7=48
Convolution              809                      1 1 808 810 0=48 1=1 5=1 6=2304
BinaryOp                 811                      2 1 800 803 811
BinaryOp                 812                      2 1 811 810 812
ReLU                     813                      1 1 812 813
Convolution              814                      1 1 701_splitncnn_0 816 0=48 1=1 5=1 6=4608 9=1
ConvolutionDepthWise     817                      1 1 816 818 0=48 1=5 4=2 5=1 6=1200 7=48
Convolution              819                      1 1 818 819 0=48 1=1 6=2304
Concat                   820                      2 1 813 819 820
Split                    splitncnn_4              1 3 820 820_splitncnn_0 820_splitncnn_1 820_splitncnn_2
Convolution              821                      1 1 820_splitncnn_2 823 0=24 1=1 5=1 6=2304 9=1
ConvolutionDepthWise     824                      1 1 823 825 0=24 1=3 2=2 4=2 5=1 6=216 7=24
Convolution              826                      1 1 825 827 0=24 1=1 5=1 6=576
Interp                   852                      1 1 827 852 0=2 1=2.000000e+00 2=2.000000e+00
Pooling                  853                      1 1 820_splitncnn_1 853 0=1 4=1
InnerProduct             854                      1 1 853 855 0=24 1=1 2=2304
Convolution              856                      1 1 820_splitncnn_0 858 0=24 1=1 5=1 6=2304 9=1
DeconvolutionDepthWise   859                      1 1 858 860 0=24 1=4 2=3 3=2 4=4 5=1 6=384 7=24
Convolution              861                      1 1 860 862 0=24 1=1 5=1 6=576
BinaryOp                 863                      2 1 852 855 863
BinaryOp                 864                      2 1 863 862 864
ReLU                     865                      1 1 864 865
Convolution              866                      1 1 570_splitncnn_0 868 0=24 1=1 5=1 6=1152 9=1
ConvolutionDepthWise     869                      1 1 868 870 0=24 1=5 4=2 5=1 6=600 7=24
Convolution              871                      1 1 870 871 0=24 1=1 6=576
Concat                   872                      2 1 865 871 872
Split                    splitncnn_5              1 3 872 872_splitncnn_0 872_splitncnn_1 872_splitncnn_2
Convolution              873                      1 1 872_splitncnn_2 875 0=12 1=1 5=1 6=576 9=1
ConvolutionDepthWise     876                      1 1 875 877 0=12 1=3 2=2 4=2 5=1 6=108 7=12
Convolution              878                      1 1 877 879 0=12 1=1 5=1 6=144
Interp                   904                      1 1 879 904 0=2 1=2.000000e+00 2=2.000000e+00
Pooling                  905                      1 1 872_splitncnn_1 905 0=1 4=1
InnerProduct             906                      1 1 905 907 0=12 1=1 2=576
Convolution              908                      1 1 872_splitncnn_0 910 0=12 1=1 5=1 6=576 9=1
DeconvolutionDepthWise   911                      1 1 910 912 0=12 1=4 2=3 3=2 4=4 5=1 6=192 7=12
Convolution              913                      1 1 912 914 0=12 1=1 5=1 6=144
BinaryOp                 915                      2 1 904 907 915
BinaryOp                 916                      2 1 915 914 916
ReLU                     917                      1 1 916 917
Convolution              918                      1 1 503_splitncnn_0 920 0=12 1=1 5=1 6=288 9=1
ConvolutionDepthWise     921                      1 1 920 922 0=12 1=5 4=2 5=1 6=300 7=12
Convolution              923                      1 1 922 923 0=12 1=1 6=144
Concat                   924                      2 1 917 923 924
Split                    splitncnn_6              1 2 924 924_splitncnn_0 924_splitncnn_1
Convolution              925                      1 1 924_splitncnn_1 hm 0=1 1=3 4=1 5=1 6=216
Convolution              926                      1 1 924_splitncnn_0 927 0=4 1=3 4=1 5=1 6=864 9=1
BinaryOp                 929                      2 1 927 928 wh 0=2
